data.pth (torch_old, 4151 bytes, 6 tensors)

l1.weight f4 [8, 54]
000000 9d a7 4a 3f 25 57 8e be 5b b7 e6 3e ca a3 c1 bd
       0.7916201 -0.2780086 0.45061764 -0.094550684
000010 02 50 82 bd 82 92 ca be db d2 db 3e 77 44 a5 3e
       -0.063629165 -0.39564902 0.42934307 0.32278797
000020 8f cc 29 3f ea 7c ca 3e d3 8a 51 be 73 b4 8c be
       0.66327757 0.39548427 -0.20463113 -0.27481422
000030 d5 61 b4 3e f9 49 ba bd 81 02 28 be 6d 56 a4 be
       0.3523089 -0.090961404 -0.16407205 -0.32097188
000040 c0 e7 e3 bd 83 95 ca be 7c c8 a8 bd c6 5a 96 be
       -0.11128187 -0.39567193 -0.08241364 -0.2936613
000050 fb 40 32 3f c2 f0 94 be 63 1e 93 be 56 39 15 bf
       0.696304 -0.29089934 -0.2873412 -0.5829061
000060 f0 15 d2 3e 49 11 93 bd 59 4e 3d be 8e d1 ba be
       0.41032362 -0.07181031 -0.18486919 -0.36488003
000070 0d 43 96 bd a2 e7 02 bf b7 63 c3 be 83 18 45 be
       -0.07337008 -0.51134694 -0.38162014 -0.19247632
000080 44 ae 06 3f cd c2 fe 3e d1 10 49 be 39 82 53 be
       0.5260966 0.49757996 -0.19635321 -0.20655145
000090 b4 e0 c4 bd 2f b8 f7 3e 03 96 f0 3e 67 af 18 3f
       -0.09613171 0.48382708 0.4698945 0.5964264
0000a0 f2 58 c8 be 16 61 88 be 3f 64 8a bc c2 19 3d bd
       -0.3913036 -0.2663657 -0.016893504 -0.046167143
0000b0 81 5c f9 3e f6 79 c4 bd 14 11 a4 3f 93 d3 ff 3e
       0.48703387 -0.09593575 1.2817712 0.49966106
0000c0 88 98 24 be bf 47 94 bd 1c 98 9a be 94 23 c4 3c
       -0.16073811 -0.07240247 -0.30194175 0.023942746
0000d0 9d 75 09 3f 1f b9 ce 3e f4 4f 0e 3f 98 28 2e 3e
       0.5369509 0.4037561 0.5559075 0.17007673
0000e0 e9 56 f2 3e da bf 64 be d0 f3 26 be dd 26 25 3c
       0.47331932 -0.2233881 -0.16303945 0.0100800665
0000f0 17 4a a6 3d 1a d5 60 3e 94 14 da 3e 34 e1 67 3e
       0.081196 0.21956292 0.42593825 0.22644502
000100 fd 28 10 be 74 b8 3d 3f cd a5 c0 3d db 38 60 3f
       -0.14078136 0.7410958 0.09406624 0.87586755
000110 58 56 2e be 2d 6a e3 3e 6b 72 87 be bd fb 10 3d
       -0.17025125 0.44416943 -0.2645448 0.035396326
000120 4b d5 94 be 4b e0 b8 be bb 8a ad 3e 69 b2 b4 be
       -0.2906898 -0.36108622 0.33894905 -0.35292366
000130 6c 5e b2 be 97 46 a7 bc 02 b5 14 3f b0 80 03 bd
       -0.34837663 -0.020419402 0.58088696 -0.032105148
000140 5e 4a 2b be cb 5c d0 be 71 bd b4 3d 32 d1 85 be
       -0.16727588 -0.40695795 0.088251956 -0.26136166
000150 a7 91 d1 bc e5 27 37 3f f4 ef ac 3e 35 41 e2 3e
       -0.025582148 0.7154525 0.3377682 0.44190374
000160 b8 aa 00 be a1 3a f3 3e 18 77 07 be a9 78 04 3f
       -0.12565124 0.47505668 -0.13229024 0.5174661
000170 93 bf 40 3e 89 8f 69 3e b7 d9 73 bd da 15 5f be
       0.1882308 0.2280866 -0.0595338 -0.2178568
000180 14 fe 30 3f 78 48 90 bd 7a e7 4e 3f 0d fa 3e be
       0.6913769 -0.07045072 0.80821955 -0.18650074
000190 fd c1 8e 3f c6 ac c9 3e 6c f6 25 be 2e fe 8c be
       1.115295 0.39389628 -0.16207284 -0.27537674
0001a0 f8 f2 d1 3e 7f 14 15 bd 80 76 65 3e 4d 3b 9d bd
       0.41005683 -0.0363965 0.22408485 -0.07677326
0001b0 64 36 86 3d 0c 17 8c bd 7e bc d6 3d af 67 0a be
       0.06553343 -0.06840333 0.10485171 -0.13516115
0001c0 a0 f3 4f 3c 58 c3 f4 3c 40 6b 5e 3c e0 49 48 bd
       0.012692362 0.029878303 0.013575375 -0.048898578
0001d0 a2 9a d2 3d 28 90 a0 3d 3c e9 72 bd 35 9e 97 bd
       0.102834 0.078399956 -0.05930446 -0.074032225
0001e0 e2 91 b3 bd fa 66 f5 bd 68 15 d2 3d 30 48 87 3c
       -0.08768059 -0.11982532 0.10257989 0.016513914
0001f0 b7 7f aa bd 18 3f 40 3d f0 02 6d 3c 9c 19 42 3d
       -0.08325141 0.04693517 0.014466032 0.047387704
000200 5c 2c eb bd e8 94 b6 3c 84 9e 47 3d b9 14 e0 bd
       -0.1148307 0.0222878 0.048735157 -0.109414525
000210 60 09 37 3c 1c de fe 3d 90 cc a5 bc 48 15 34 3d
       0.011171669 0.12444708 -0.020239145 0.043965608
000220 74 38 7c 3d f8 0d d6 bd a2 4a b7 bd ac 4d 04 bd
       0.061577275 -0.10451883 -0.08949782 -0.032300636
000230 28 54 7d 3d d0 47 e4 3d d7 14 bb bc 64 ee e8 bd
       0.061847836 0.1114651 -0.022837086 -0.113735944
000240 80 5d 6d bb 00 9f 51 bd 12 9d 9c bd 68 68 e7 bc
       -0.003621906 -0.051177025 -0.07647146 -0.028248027
000250 ec bd e9 3d a0 01 e1 3d 56 12 b2 3d 3b 9a 75 3d
       0.11413178 0.10986638 0.086949036 0.05996154
000260 9f 9b e3 bd ac 2f 23 bc 5a d6 04 bd c8 1c 62 bc
       -0.11113667 -0.009960096 -0.032430984 -0.013800807
000270 de 00 c1 3d c8 fe fa bd e0 21 46 3c 04 5c dc bc
       0.094239935 -0.12255627 0.012093037 -0.026899345
000280 25 2b 9c bd a2 6d 69 bd dc 7c 15 3f f6 e3 59 be
       -0.07625417 -0.05698932 0.58393645 -0.21278366
000290 85 ae 67 3e f6 46 22 3f 9c ea 92 3e 58 b2 f8 be
       0.22625168 0.6338953 0.28694618 -0.48573565
0002a0 40 66 8d 3c ef 55 4f 3e bb b3 e6 3a d2 b0 d2 3d
       0.01726067 0.20247625 0.0017601171 0.10287632
0002b0 5c 67 11 3f 97 c9 ab 3e b0 4b 7d be 47 24 ea 3e
       0.5679834 0.33552238 -0.24735904 0.45730802
0002c0 63 4b 35 be 9f 54 d7 3e 5f 4c 38 3f 30 f0 13 bf
       -0.17704539 0.42056748 0.71991533 -0.5778837
0002d0 9c 19 04 be 7a 3f 6f 3f 7c 59 02 3f ea e5 63 3f
       -0.12900394 0.9345623 0.5091779 0.89022696
0002e0 8a ef 65 3f e0 51 1d 3f 29 dd a5 3e ee 20 d2 3e
       0.8981863 0.61453056 0.32395294 0.41040748
0002f0 4d 09 92 be 56 21 88 be 0e 96 01 bd b3 d1 31 be
       -0.2852272 -0.26587933 -0.031637244 -0.1736515
000300 c6 78 9c be 69 38 e1 3e 41 b3 bc 3e e7 ca 1b 3e
       -0.30560893 0.4398835 0.3685551 0.1521412
000310 ff 69 52 be 73 ac bf 3e 5d 6b 8c be b3 5c 46 be
       -0.20548247 0.37436256 -0.27425662 -0.193713
000320 37 73 44 be 39 46 52 be 7c ef 3f be 87 8d 88 be
       -0.19184576 -0.205346 -0.187437 -0.26670477
000330 9e 76 dc 3e 93 31 f9 bd 4d ce d7 3e c0 38 99 be
       0.43059248 -0.12167659 0.42149583 -0.2992611
000340 4a f4 5d 3f c3 ba 03 3f d4 c7 f5 3e a8 ed a5 be
       0.8670088 0.5145685 0.4800402 -0.3240788
000350 b7 62 b7 3e 44 97 45 be f9 bb c6 bd 59 83 c4 3d
       0.358175 -0.19295985 -0.09703822 0.09595365
000360 90 da cd bd a2 8e ce be 13 8e 0d 3e bc 12 bf 3e
       -0.10051453 -0.40343195 0.13823728 0.3731898
000370 3c b2 06 3f 41 43 00 bf 9f 24 c5 3e bd 40 4f 3e
       0.52615714 -0.5010262 0.38504502 0.2023954
000380 13 63 ab 3e 36 aa 96 3e 7f 54 f1 3e f2 3f 25 3f
       0.33474025 0.29426736 0.47134778 0.645507
000390 87 4c 3b 3f f7 3b 12 3f b8 47 84 bc 8e 6b 09 3f
       0.73163646 0.5712275 -0.01614748 0.5367974
0003a0 43 31 ec 3e 6f af f6 be 62 79 bc 3e ac 17 40 3f
       0.46131334 -0.4818072 0.36811358 0.7503612
0003b0 3f 15 9e be 4c 6c 4e 3f 25 9e 44 3f b6 9d 34 3f
       -0.30875584 0.80634 0.7680381 0.7055315
0003c0 87 f2 27 3f 76 78 27 3e 4a bd 18 3f b1 01 c6 be
       0.6560444 0.16354546 0.5966383 -0.38673165
0003d0 48 0a cb 3e fb c7 0b bf 8f c0 67 be 58 9d 05 3f
       0.3965628 -0.5460202 -0.22632049 0.5219321
0003e0 f8 d1 e5 3a 37 2f b7 3e b8 00 0a be 9a 83 f4 3e
       0.0017533889 0.3577821 -0.13476837 0.47756654
0003f0 59 5a b4 3e 85 a2 b2 3e 9a c2 06 3f 6b 12 07 3f
       0.3522518 0.34889618 0.5264069 0.5276248

l1.bias f4 [8]
000000 36 96 ca 3e cd b7 f3 3e 8a 07 1e be f6 f5 73 3f
       0.39567727 0.47601166 -0.15432563 0.9529718
000010 f5 ad 20 3f dd 70 77 3f c9 e0 a3 3e b9 10 00 be
       0.6276544 0.9665659 0.32007435 -0.12506379

l2.weight f4 [8, 8]
000000 cb be 4d 3f d0 6c 67 3f 1e 43 9e 3e 6b 6f cb 3f
       0.8036925 0.9040041 0.3091058 1.5893377
000010 8d 9c 6a be e8 c9 67 3f 60 92 80 bd 4c 4e 76 be
       -0.22911282 0.9054246 -0.06277919 -0.24053305
000020 ae d9 a1 bf f5 61 0e be d2 31 36 3d a5 b6 19 3f
       -1.2644556 -0.13904555 0.044481106 0.6004432
000030 36 60 13 3f 93 56 75 3f 48 ab 0c bf 2c 22 99 be
       0.5756868 0.95835227 -0.54948854 -0.29908884
000040 d2 69 ad be d8 fd c5 bf 94 70 a8 3e 04 94 84 3f
       -0.33869797 -1.5468092 0.3289839 1.0357671
000050 e5 56 3c 3f 56 d6 22 bf 05 bf 94 3e 07 6e 59 bd
       0.7357009 -0.636083 0.29051986 -0.053083446
000060 3f e0 8f be 95 9a 92 3e 95 14 a4 3e b1 24 03 3f
       -0.28100774 0.28633562 0.32046953 0.5122786
000070 65 17 bb 3f e2 2c a4 be b1 ea 95 3f 84 92 49 bc
       1.4616514 -0.32065493 1.1712247 -0.012302998
000080 fd 1a 8c be dc ac b1 be 70 4e 62 bd 9d e7 96 be
       -0.2736434 -0.34702194 -0.055250585 -0.29473582
000090 60 a7 4e be 18 b0 e2 3d 71 10 04 be c6 fe 34 3e
       -0.20181036 0.110687435 -0.12896897 0.17675313
0000a0 dd da b4 3f 67 c9 fb 3e 9c 2b 90 3e 31 22 29 be
       1.4129292 0.49177095 0.2815827 -0.16516949
0000b0 3b b5 3b 3f 82 97 63 be f4 f4 88 3f 82 9a 1f 3e
       0.7332341 -0.22225764 1.0699754 0.15586284
0000c0 e2 09 5c 3e cb e4 57 3f 9f f0 29 be f3 4b 84 3f
       0.21488145 0.84333485 -0.16595696 1.0335678
0000d0 43 94 38 3e ac 1e ca 3d 92 f0 8e bf 89 31 02 be
       0.18025307 0.098691314 -1.1167166 -0.12714209
0000e0 96 a7 15 3f 58 32 9b 3f 00 96 5f bb f5 2d 3d 3f
       0.5845884 1.2124739 -0.0034116507 0.7389825
0000f0 27 5a d6 be 36 a3 bb 3f 25 ab 91 3e 4b ca 7b 3e
       -0.41865656 1.4659183 0.28450885 0.24588887

l2.bias f4 [8]
000000 17 77 41 be 50 c1 b2 3f 1f b4 af 3f 8b ec c7 be
       -0.18893085 1.3965244 1.3726844 -0.39047655
000010 dd 84 fb bc e5 f3 7f be 49 b1 25 bf 4f 08 af bc
       -0.030703003 -0.24995382 -0.6472364 -0.021366267

l3.weight f4 [7, 8]
000000 46 43 80 3d 1a f6 37 bd cb 43 bb bf 1c 3e a0 3e
       0.062628314 -0.044912435 -1.4630064 0.31297386
000010 e8 e8 1e 3d ac 33 be be 39 33 36 3f 80 77 ff bd
       0.038796335 -0.37148798 0.7117191 -0.12473965
000020 c7 7d ba bf 36 d6 af 3f cb 86 96 3f d8 13 b6 bf
       -1.4569634 1.3737247 1.1759886 -1.4224806
000030 4c 52 de 3d 94 09 56 bf 5a 00 e2 bf 03 0d f7 bf
       0.10855541 -0.83608365 -1.7656357 -1.9300846
000040 84 48 b6 3e 41 be 2d 3f 40 0b af bf b9 7a ab bf
       0.356022 0.6786843 -1.3675308 -1.3396827
000050 28 f9 c8 bd b9 45 d0 bf 0b 55 b6 bf f4 c0 36 3f
       -0.09813148 -1.6271278 -1.4244703 0.71388173
000060 30 e9 9e 3e 7d 63 03 3e 44 79 e2 3e 68 ae e6 3e
       0.31037283 0.1283092 0.44233143 0.45054936
000070 73 c0 a8 be 67 19 53 bf 2b bd 9b be 03 7a 2d bf
       -0.32959327 -0.82460636 -0.3041776 -0.677643
000080 73 c1 91 bf b1 5b 96 bf 43 4d 53 3e 25 e1 33 3f
       -1.1387161 -1.1746732 0.20634942 0.7026542
000090 4a 42 a9 be 1c b3 49 3f b5 10 79 bf a9 e9 c0 bf
       -0.33058387 0.78788924 -0.9729112 -1.5071307
0000a0 75 81 a9 3e 05 7d b1 bf 9e 42 84 bf 88 21 e8 3e
       0.3310658 -1.3866278 -1.033283 0.45338082
0000b0 81 19 75 3e 29 92 2c 3f cf 94 8c be 54 e8 fb bd
       0.2393551 0.6741052 -0.27457282 -0.123001724
0000c0 90 97 14 3f e1 ef 7d bf 1d c6 7a bf 7e e3 b9 bf
       0.58043766 -0.9919415 -0.97958547 -1.452255
0000d0 2c 3c 16 bc 5a 03 6f 3d d1 ae 11 3f 0c 16 ef 3e
       -0.0091696195 0.058352806 0.56907374 0.46696508

l3.bias f4 [7]
000000 29 25 4f bf 88 f6 8e 3f 81 08 ca 3d 7f 4b 56 be
       -0.80916077 1.1168985 0.09864903 -0.20927237
000010 58 59 5e be 1d 7f f2 be 07 7e 94 be
       -0.2171377 -0.47362605 -0.290024
